net_params.pkl (torch, 1747 bytes, 3 tensors)

0.weight f4 [10, 1]
-1.139962 0.50969565 1.0836444 -0.28456116 0.88047963 -0.28805643 -0.3226174 -0.5016522
0.58373404 0.8142855
00000000: 46ea 91bf 6a7b 023f dcb4 8a3f 00b2 91be
00000010: 1d67 613f 227c 93be 1c2e a5be 476c 00bf
00000020: 986f 153f 0475 503f

0.bias f4 [10]
-0.42547458 -0.414827 -0.5283014 -0.341761 -0.09760581 0.030960925 -0.48452088 -0.18748158
-0.17006288 -0.52108693
00000000: ced7 d9be 3464 d4be c33e 07bf 4cfb aebe
00000010: 8ee5 c7bd c4a1 fd3c 1f13 f8be 2cfb 3fbe
00000020: f724 2ebe f465 05bf

2.weight f4 [1, 10]
1.0183413 0.079679504 0.68776566 -0.10811951 0.44103187 0.2574201 -0.010382533 0.40434045
0.2907074 0.3755362
00000000: 0259 823f 022f a33d 6911 303f c36d ddbd
00000010: eece e13e 91cc 833e 801b 2abc b605 cf3e
00000020: 9ad7 943e 4846 c03e
